model mlp  epochs 0  batchS 1  learnR 0.01
hidden 200  layers 1  drpout 0.3  activ. relu  optimr sgd
FeedforwardNetwork(
  (network): Sequential(
    (0): Dropout(p=0.3, inplace=False)
    (1): Linear(in_features=784, out_features=200, bias=True)
    (2): Dropout(p=0.3, inplace=False)
    (3): ReLU()
    (output): Linear(in_features=200, out_features=10, bias=True)
  )
)
Final Test acc: 0.1638
===========================

model mlp  epochs 0  batchS 1  learnR 0.001
hidden 200  layers 1  drpout 0.3  activ. relu  optimr sgd
FeedforwardNetwork(
  (network): Sequential(
    (0): Dropout(p=0.3, inplace=False)
    (1): Linear(in_features=784, out_features=200, bias=True)
    (2): Dropout(p=0.3, inplace=False)
    (3): ReLU()
    (output): Linear(in_features=200, out_features=10, bias=True)
  )
)
Final Test acc: 0.1638
===========================

model mlp  epochs 0  batchS 1  learnR 0.1
hidden 200  layers 1  drpout 0.3  activ. relu  optimr sgd
FeedforwardNetwork(
  (network): Sequential(
    (0): Dropout(p=0.3, inplace=False)
    (1): Linear(in_features=784, out_features=200, bias=True)
    (2): Dropout(p=0.3, inplace=False)
    (3): ReLU()
    (output): Linear(in_features=200, out_features=10, bias=True)
  )
)
Final Test acc: 0.1638
===========================

model mlp  epochs 0  batchS 1  learnR 0.01
hidden 100  layers 1  drpout 0.3  activ. relu  optimr sgd
FeedforwardNetwork(
  (network): Sequential(
    (0): Dropout(p=0.3, inplace=False)
    (1): Linear(in_features=784, out_features=100, bias=True)
    (2): Dropout(p=0.3, inplace=False)
    (3): ReLU()
    (output): Linear(in_features=100, out_features=10, bias=True)
  )
)
Final Test acc: 0.1024
===========================

model mlp  epochs 0  batchS 1  learnR 0.01
hidden 200  layers 1  drpout 0.5  activ. relu  optimr sgd
FeedforwardNetwork(
  (network): Sequential(
    (0): Dropout(p=0.5, inplace=False)
    (1): Linear(in_features=784, out_features=200, bias=True)
    (2): Dropout(p=0.5, inplace=False)
    (3): ReLU()
    (output): Linear(in_features=200, out_features=10, bias=True)
  )
)
Final Test acc: 0.1638
===========================

model mlp  epochs 0  batchS 1  learnR 0.01
hidden 200  layers 1  drpout 0.3  activ. tanh  optimr sgd
FeedforwardNetwork(
  (network): Sequential(
    (0): Dropout(p=0.3, inplace=False)
    (1): Linear(in_features=784, out_features=200, bias=True)
    (2): Dropout(p=0.3, inplace=False)
    (3): Tanh()
    (output): Linear(in_features=200, out_features=10, bias=True)
  )
)
Final Test acc: 0.1514
===========================

model mlp  epochs 0  batchS 1  learnR 0.01
hidden 200  layers 1  drpout 0.3  activ. relu  optimr adam
FeedforwardNetwork(
  (network): Sequential(
    (0): Dropout(p=0.3, inplace=False)
    (1): Linear(in_features=784, out_features=200, bias=True)
    (2): Dropout(p=0.3, inplace=False)
    (3): ReLU()
    (output): Linear(in_features=200, out_features=10, bias=True)
  )
)
Final Test acc: 0.1638
===========================

model mlp  epochs 0  batchS 1  learnR 0.01
hidden 200  layers 2  drpout 0.3  activ. relu  optimr sgd
FeedforwardNetwork(
  (network): Sequential(
    (0): Dropout(p=0.3, inplace=False)
    (1): Linear(in_features=784, out_features=200, bias=True)
    (2): Dropout(p=0.3, inplace=False)
    (3): ReLU()
    (4): Linear(in_features=200, out_features=200, bias=True)
    (5): Dropout(p=0.3, inplace=False)
    (6): ReLU()
    (output): Linear(in_features=200, out_features=10, bias=True)
  )
)
Final Test acc: 0.0936
===========================

model mlp  epochs 0  batchS 1  learnR 0.01
hidden 200  layers 3  drpout 0.3  activ. relu  optimr sgd
FeedforwardNetwork(
  (network): Sequential(
    (0): Dropout(p=0.3, inplace=False)
    (1): Linear(in_features=784, out_features=200, bias=True)
    (2): Dropout(p=0.3, inplace=False)
    (3): ReLU()
    (4): Linear(in_features=200, out_features=200, bias=True)
    (5): Dropout(p=0.3, inplace=False)
    (6): ReLU()
    (8): Linear(in_features=200, out_features=200, bias=True)
    (9): Dropout(p=0.3, inplace=False)
    (10): ReLU()
    (output): Linear(in_features=200, out_features=10, bias=True)
  )
)
Final Test acc: 0.1000
===========================

